resources/actual_model_fast.pth (torch, 196663 bytes, 6 tensors)

linear_layer_stack.0.weight f4 [256, 55]
0	0x3f0b1a07	0.5433659
1	0xbdb1a2ba	-0.08673616
2	0xbd59c3f2	-0.053165384
3	0x3eda6763	0.42657003
4	0xbe4d63c0	-0.20057583
5	0xbcd19ede	-0.02558845
6	0xbdbd606f	-0.09246909
7	0xbd8034c5	-0.06260065
8	0x3d9b24af	0.07575356
9	0xbe821978	-0.25410056
10	0xbe08fdac	-0.13378018
11	0x3de21130	0.110384345
12	0x3f01ced2	0.5070621
13	0xbe806567	-0.25077364
14	0x3c88e4ce	0.016710665
15	0xbd3905fc	-0.045171723
16	0x3d1a3859	0.037651394
17	0xbce00c82	-0.027349714
18	0xbd60fe49	-0.054930005
19	0xbd4f7a6f	-0.05065387
20	0xbd8367e4	-0.064163
21	0xbe20b19b	-0.15692751
22	0xbdc5a423	-0.09650447
23	0x3e73cbed	0.2380826
24	0xbc62f915	-0.013853331
25	0xbaa5ccf4	-0.0012649582
26	0x3cb2299a	0.021748353
27	0xbdd4fa73	-0.10399332
28	0x3d5a6e2c	0.053327724
29	0xbe174cfc	-0.14775461
30	0x3da2d357	0.07950466
31	0xbd9017a0	-0.07035756
32	0x3e5990b7	0.2124661
33	0x3dd953c7	0.106116824
34	0xbe390486	-0.18068132
35	0x3d7eadad	0.06217735
36	0x3d8895ba	0.06669183
37	0x3e9c9543	0.30582628
38	0x3defca79	0.117085405
39	0xbc1e2bd5	-0.009654005
40	0x3e1401d8	0.14453828
41	0x3e8f9e74	0.28050578
42	0x3e398bec	0.18119782
43	0xba0e539e	-0.000542933
44	0xbc9db75f	-0.019252477
45	0xbb224cbd	-0.0024764978
46	0xbe817349	-0.25283268
47	0x3e2da326	0.16956767
48	0x3dc42891	0.0957805
49	0xbeb88931	-0.3604217
50	0xbdea869c	-0.11451456
51	0xbebb9889	-0.36639813
52	0xbdb9f981	-0.09080792
53	0x3d9b52d2	0.07584156
54	0x3eaa4e41	0.33262828
55	0x3ee37393	0.44424114
56	0x3eae46f1	0.340385
57	0x3dfdaa9e	0.12386058
58	0x3e875e70	0.26439238
59	0xbe898c4a	-0.26864845
60	0x3d8bf5a1	0.06833959
61	0xbe0738c5	-0.1320525
62	0xbd27def5	-0.040984113
63	0xbe42ee07	-0.19036113
64	0xbd19a535	-0.03751107
65	0xbebde1f4	-0.3708645
66	0x3e36ff5d	0.17870851
67	0x3d935687	0.07194238
68	0x3e09d09f	0.13458489
69	0xbe21f4ef	-0.15816091
70	0x3dd406d8	0.10352868
71	0x3cb9f1d1	0.022698315
72	0x3e845fbe	0.25854295
73	0xbcc703f6	-0.02429388
74	0x3d8609bd	0.06544826
75	0xbe5897dd	-0.21151681
76	0xbe395ebd	-0.18102546
77	0x3a5e8c09	0.0008489495
78	0xbc9169db	-0.017750671
79	0x3e44ef49	0.19231905
80	0xbe13a09a	-0.14416733
81	0x3d87c5bb	0.06629511
82	0xbd66507e	-0.056229107
83	0xbe08168d	-0.13289852
84	0x3edfa093	0.43677196
85	0x3d593fac	0.053039238
86	0xbe0b2800	-0.13589478
87	0x3df9863f	0.121838085
88	0xbea176c3	-0.3153592
89	0xbda4455a	-0.0802104
90	0x3e8d942c	0.2765211
91	0x3dfde590	0.12397301
92	0x3d012c70	0.03153652
93	0x3db6f49f	0.089333765
94	0xbec14f2d	-0.3775572
95	0x3e2dc2a9	0.16968788
96	0x3eb0d4e3	0.3453742
97	0xbc9b4faa	-0.018958885
98	0x3cbdf75b	0.023189237
99	0x3d4e7f98	0.05041465
100	0x3de4d998	0.11174315
101	0xbdf6a43c	-0.12043044
102	0xbe048f91	-0.12945391
103	0x3de56458	0.1120078
104	0xbece007f	-0.40234753
105	0xbe33ca26	-0.17557582
106	0xbb0b304c	-0.0021238504
107	0xbe8c0be6	-0.27352828
108	0x3d0baf96	0.034103
109	0xbe82f6ad	-0.25578824
110	0x3d92450d	0.07142077
111	0xbe89bf7d	-0.26903906
112	0x3dc02d68	0.093836606
113	0xbe033014	-0.12811309
114	0xbdc9d2f7	-0.098546915
115	0xbe9d6c31	-0.30746606
116	0xbdab0c4a	-0.08351953
117	0xbe0b0c74	-0.13578969
118	0xbe1050ae	-0.14093277
119	0xbe1988ef	-0.14993642
120	0x3deb1e28	0.11480361
121	0xbe914486	-0.28372592
122	0xbd9133fb	-0.070899926
123	0x3e1a89c4	0.15091616
124	0xbf0386ef	-0.5137777
125	0xbe248110	-0.16064858
126	0xbe467a05	-0.19382484
127	0xbe6c410b	-0.23071687
128	0x3eb63c6a	0.35592967
129	0x3e265044	0.16241556
130	0x3e2d9e90	0.16955018
131	0x3da4116b	0.08011135
132	0xbc97b50a	-0.018518943
133	0x3e9a0c76	0.30087632
134	0xbce53227	-0.027978016
135	0xbdab179f	-0.08354115
136	0xbeaf3b8f	-0.34225127
137	0xbe9ed8a8	-0.3102467
138	0x3dff34b1	0.12461222
139	0xbd0018db	-0.031273704
140	0x3deade32	0.11468162
141	0xbe3bdc98	-0.18345869
142	0x3e085caa	0.13316599
143	0x3d349402	0.044086464
144	0xbe1be5a1	-0.15224315
145	0x3e35fcdc	0.1777224
146	0xbdcf717e	-0.10129069
147	0xbda2ce62	-0.07949521
148	0x3eb4fde0	0.3534994
149	0xbe172ddc	-0.14763588
150	0x3d735e58	0.059416145
151	0x3d371f06	0.04470732
152	0x3db903a1	0.09033895
153	0x3cdb8aff	0.026799677
154	0xbd0f2447	-0.034946706
155	0xbcfb9c0b	-0.030714056
156	0x3e086d28	0.1332289
157	0xbe1aac0a	-0.1510469
158	0x3d3ee246	0.04660251
159	0xbe96b226	-0.2943279
160	0xbe4c6a6b	-0.1996247
161	0x3f030430	0.51178265
162	0x3e1b9f98	0.15197599
163	0xbee4308a	-0.44568282
164	0xbdb61ae4	-0.08891848
165	0xbda8a4ca	-0.08234556
166	0xbe7125a2	-0.23549512
167	0x3eabe522	0.33573252
168	0x3e777a1a	0.24167672
169	0xbe6681fe	-0.22510526
170	0xbd4712b6	-0.04860183
171	0xbdf05329	-0.117346115
172	0x3d9be25b	0.07611533
173	0xbe01bf3f	-0.12670611
174	0xbde9ba54	-0.114124924
175	0xbe579441	-0.21052648
176	0xbd6c363c	-0.05766891
177	0x3ea329f5	0.31867948
178	0x3e435b7b	0.19077866
179	0x3cdebcbb	0.027189603
180	0x3e416c40	0.1888895
181	0xbdc6881f	-0.09693932
182	0x3e11d4b4	0.14241296
183	0xbd24e53b	-0.040257674
184	0x3ee9232f	0.45534655
185	0xbca36d45	-0.019949565
186	0x3e9ed566	0.31022185
187	0xbcb42fc8	-0.02199544
188	0xbe4746b5	-0.19460566
189	0x3d799b48	0.060939103
190	0x3e379efa	0.17931738
191	0x3c929dcd	0.01789751
192	0xbc57b768	-0.013166286
193	0x3c569697	0.013097427
194	0xbd9b42e9	-0.075811215
195	0x3d1ef8af	0.038811382
196	0x3cbaa384	0.022783048
197	0x3e253445	0.1613322
198	0xbe3d8dde	-0.1851115
199	0x3dc1f352	0.09470238
200	0x3ca70129	0.020386295
201	0x3c2fc656	0.010728439
202	0x3e1358ac	0.14389294
203	0x3d2816a8	0.04103723
204	0xbc9814c7	-0.018564595
205	0xbd3b7474	-0.045765355
206	0x3d7be999	0.061502073
207	0xbc6ee3e7	-0.014580703
208	0xbe9b179d	-0.30291453
209	0x3e4ac4cd	0.19801636
210	0x3ea86321	0.3288813
211	0x3c5fcd5a	0.0136597995
212	0x3cc21266	0.023690414
213	0xbe39c083	-0.18139844
214	0xbe12b89c	-0.14328235
215	0x3e2fa5ee	0.17153141
216	0x3e6c5a19	0.23081245
217	0x3e2fd5fe	0.17171475
218	0xbe76c48b	-0.24098413
219	0xbda17407	-0.078834586
220	0x3d146cc8	0.036236554
221	0xbd1a890c	-0.037728354
222	0x3e09be2a	0.13451448
223	0x3ea74931	0.32673028
224	0xbe8f509d	-0.2799119
225	0xbe7e7c90	-0.24852204
226	0x3d17989b	0.03701077
227	0x3d49cf8f	0.04927021
228	0xbe29bd6a	-0.16576162
229	0xbe4d81d9	-0.20069064
230	0x3e800169	0.25001076
231	0x3d30cc51	0.0431636
232	0x3ccaf9d3	0.024777329
233	0x3e2563ee	0.16151401
234	0x3d8ad50e	0.06778918
235	0x3d939a5c	0.07207176
236	0x3e6bd9cd	0.23032303
237	0xbe6ecfc4	-0.23321444
238	0xbdaf0316	-0.085455105
239	0xbd3bb835	-0.04582997
240	0x3e85551c	0.26041496
241	0xbe4e2c3b	-0.2013406
242	0xbe1a87fb	-0.15090935
243	0x3e183e63	0.14867549
244	0xbeabf3e1	-0.33584502
245	0xbda644b4	-0.08118573
246	0xbe05ab86	-0.13053712
247	0x3e0aedda	0.13567296
248	0xbe4343f9	-0.19068898
249	0xbd74f4bc	-0.05980371
250	0xbdd25c64	-0.10271528
251	0xbe9787ce	-0.29595798
252	0xbdca12cd	-0.09866867
253	0xbd8f8dda	-0.07009478
254	0xbd565ef7	-0.05233666
255	0xbeadbc6b	-0.33932814

linear_layer_stack.0.bias f4 [256]
0	0xbeabfebd	-0.33592787
1	0xbf058bd7	-0.52166504
2	0xbebd4568	-0.36967015
3	0xbe3452d0	-0.17609715
4	0xbe8effb3	-0.27929458
5	0xbe06c7bc	-0.1316213
6	0xbe34dcd4	-0.17662364
7	0xbe07807b	-0.13232605
8	0xbda8f012	-0.08248915
9	0xbef74d27	-0.4830105
10	0xbe791988	-0.24326146
11	0xbeec841e	-0.46194547
12	0xbe8c6cf9	-0.2742689
13	0x3ddadb74	0.106863886
14	0xbf375b76	-0.71623933
15	0xbecb4a84	-0.39705288
16	0xbe243b2f	-0.16038202
17	0xbe6f534e	-0.23371622
18	0xbe063805	-0.13107307
19	0xbe00d6aa	-0.12581888
20	0xbde98f71	-0.114043124
21	0xbe7cc957	-0.2468618
22	0xbbdaeb0c	-0.006680852
23	0xbe125c5e	-0.14293048
24	0xbeedea4e	-0.46467823
25	0xbddd5ebf	-0.10809087
26	0xbe129866	-0.14315948
27	0xbc36a580	-0.011147857
28	0xbef3449d	-0.47513285
29	0xbede61f9	-0.43434122
30	0xbe23ceae	-0.15996811
31	0xbefce3ae	-0.49392456
32	0xbe6d16a4	-0.23153168
33	0xbe87c6fd	-0.26519004
34	0xbf1e49ad	-0.6183117
35	0xbeb1da51	-0.34736875
36	0xbee693cd	-0.45034638
37	0xbec7eeee	-0.39049476
38	0xbec18380	-0.3779564
39	0xbe7ac89d	-0.2449059
40	0xbdadf4ca	-0.084939554
41	0xbdb32860	-0.08747935
42	0xbed15113	-0.40882167
43	0xbde3a3db	-0.11115237
44	0xbed2bca7	-0.41159555
45	0xbe89bd71	-0.26902345
46	0xbe93b88e	-0.28851742
47	0xbf121150	-0.57057667
48	0xbe5ee744	-0.21767908
49	0xbed97c55	-0.4247767
50	0xbe700966	-0.23441085
51	0xbe95b3f6	-0.29238862
52	0xbe7e0a7f	-0.24808691
53	0xbeeb9594	-0.46012557
54	0xbe9d02a3	-0.30666074
55	0xbe2d46e4	-0.16921574
56	0xbea861d9	-0.32887152
57	0xbe136784	-0.14394957
58	0xbdd085fa	-0.10181804
59	0xbe547af3	-0.20750026
60	0xbe92ddcd	-0.28684846
61	0xbecb24db	-0.39676556
62	0xbdef9475	-0.11698238
63	0x3dcf799c	0.10130617
64	0xbd940074	-0.07226649
65	0xbf1b6b9e	-0.60711086
66	0xbea3bc3a	-0.31979543
67	0xbeade8b3	-0.33966598
68	0xbb578956	-0.0032888255
69	0xbe75e132	-0.24011686
70	0xbdb2dfbd	-0.08734081
71	0x3d013e14	0.031553343
72	0x3d43921c	0.047746763
73	0xbd35beb7	-0.044371333
74	0xbec43652	-0.38322693
75	0xbd4ada93	-0.049524855
76	0xbe829b28	-0.25509
77	0xbe602099	-0.21887435
78	0xbe99a7ed	-0.3001093
79	0xbe78333d	-0.24238296
80	0x3d967995	0.07347409
81	0xbe836df3	-0.25669822
82	0xbdefbde6	-0.11706142
83	0xbe2b6aef	-0.1674001
84	0xbb2d697a	-0.0026460574
85	0xbeb3e13f	-0.35132787
86	0xbdde7c46	-0.10863547
87	0xbedb23e4	-0.4280082
88	0xbdd3118d	-0.10306082
89	0xbef72464	-0.4826995
90	0xbea14ae0	-0.31502438
91	0xbf16cdcd	-0.5890778
92	0xbe8d473a	-0.27593404
93	0xbeb8e415	-0.36111513
94	0xbec04f1b	-0.37560353
95	0xbe85d99c	-0.26142585
96	0xbe5a9dc6	-0.21349248
97	0xbea70620	-0.3262186
98	0x3c842249	0.01612963
99	0xbed30e9b	-0.4122208
100	0xbea2968e	-0.3175549
101	0xbd957957	-0.07298534
102	0xbe8f3232	-0.27967983
103	0xbe3c69ea	-0.18399778
104	0xbee48ab6	-0.44637078
105	0xbe2c79f4	-0.16843396
106	0xbe83346b	-0.2562593
107	0xbe8b45af	-0.27201602
108	0xbea40e41	-0.32042125
109	0xbe87cf04	-0.26525128
110	0xbe086acd	-0.13321991
111	0xbdef0eee	-0.116727695
112	0xbdf2ab1b	-0.11849042
113	0xbdeb880b	-0.115005575
114	0xbec0d1b0	-0.3765998
115	0xbd44bf78	-0.04803416
116	0xbe19696a	-0.14981619
117	0xbed063ca	-0.40701133
118	0xbec48026	-0.3837902
119	0x3d4109ff	0.047128674
120	0xbef3fcc1	-0.47653773
121	0xbedbfe64	-0.42967522
122	0xbe90c6d4	-0.28276694
123	0xbec8f280	-0.39247513
124	0xbe534ac9	-0.20633997
125	0xbef5e508	-0.480263
126	0xbf123cd5	-0.5712407
127	0xbe1e2c24	-0.15446526
128	0xbdd976f5	-0.106183924
129	0xbea40420	-0.32034397
130	0xbf0e7832	-0.55652153
131	0xbee69ff7	-0.45043918
132	0xbef57b5f	-0.47945687
133	0xbef768ed	-0.4832224
134	0xbe29cfe8	-0.16583216
135	0xbef3bf86	-0.47607058
136	0xbeec9539	-0.46207598
137	0xbeaa0041	-0.3320332
138	0xbec23e0e	-0.3793797
139	0xbebdd3fc	-0.37075794
140	0xbee8e16f	-0.45484492
141	0xbeda9932	-0.42695004
142	0xbf025f3e	-0.5092658
143	0xbe1249b7	-0.14285932
144	0xbd9909be	-0.07472561
145	0xbef78ca2	-0.48349482
146	0xbdd8eea0	-0.10592389
147	0xbe0c098b	-0.13675515
148	0xbf007c7e	-0.5018996
149	0xbdfd836b	-0.123785816
150	0xbd93bc2d	-0.07213626
151	0xbec2dfae	-0.3806128
152	0xbe09c74d	-0.13454933
153	0xbe76c7e5	-0.24099691
154	0xbe30eb79	-0.17277326
155	0xbe34fe99	-0.17675246
156	0xbe8abf67	-0.27099153
157	0xbe9c858c	-0.30570638
158	0xbec2f895	-0.38080278
159	0x3df18742	0.117933765
160	0xbe1fbacc	-0.15598601
161	0xbdce55fc	-0.10074994
162	0xbe9b71f3	-0.30360374
163	0xbe193aee	-0.14963886
164	0xbe377318	-0.17914999
165	0xbe6ed0b3	-0.233218
166	0xbf09a234	-0.5376313
167	0xbe643d5c	-0.22289032
168	0x3e185513	0.14876203
169	0xbec4ef57	-0.38463852
170	0xbee2c7f3	-0.44293174
171	0xbef8a3fc	-0.4856261
172	0xbf0fbe6b	-0.5614993
173	0xbe682d8b	-0.22673623
174	0xbf0117ef	-0.50427145
175	0xbe0b2d7d	-0.13591571
176	0xbf06b2b0	-0.52616405
177	0xbef1c53d	-0.47220793
178	0x3e144f1e	0.14483306
179	0xbefae030	-0.48999166
180	0xbe86b438	-0.2630937
181	0xbf096274	-0.5366585
182	0xbb889375	-0.004167969
183	0xbd8085d3	-0.06275525
184	0xbe7e774e	-0.24850199
185	0x3cb9687a	0.022632826
186	0xbe25e8ed	-0.16202135
187	0xbe4183c4	-0.18897921
188	0xbe0678e6	-0.13132057
189	0xbf02abb8	-0.5104327
190	0xbeff4b47	-0.4986212
191	0xbdfe7bbb	-0.124259435
192	0xbe05a371	-0.13050629
193	0xbe64c2e0	-0.22339964
194	0xbe735deb	-0.23766296
195	0xbe6508cc	-0.22366637
196	0xbf07a3c4	-0.5298426
197	0xbdcd13ee	-0.10013567
198	0xbe93e810	-0.28887987
199	0xbeccc1ee	-0.39991707
200	0xbe668955	-0.22513326
201	0xbe588d26	-0.21147594
202	0xbe20a715	-0.15688737
203	0xbdf4f41a	-0.11960621
204	0xbed92245	-0.42408958
205	0xbef9d311	-0.48793843
206	0xbe749611	-0.23885371
207	0xbdbf9918	-0.09355372
208	0x3e09e5ce	0.1346657
209	0xbec44429	-0.38333252
210	0xbedfdd30	-0.4372344
211	0xbec916b1	-0.39275125
212	0x3e8732d2	0.2640596
213	0xbee407df	-0.44537255
214	0xbe9d74f6	-0.30753297
215	0xbeb89f3d	-0.3605899
216	0xbee52886	-0.4475748
217	0xbe4351e3	-0.19074206
218	0xbecf4c41	-0.40487865
219	0xbea95434	-0.33072054
220	0xbeaf8492	-0.3428083
221	0xbea08cba	-0.31357366
222	0xbed7214a	-0.42017585
223	0xbea5ce4d	-0.32383958
224	0xbe879612	-0.26481682
225	0xbe2ef638	-0.17086112
226	0xbccfeeae	-0.025382366
227	0xbf230a1f	-0.6368732
228	0xbe80d873	-0.25165138
229	0xbeb5b0d8	-0.35486484
230	0xbee364cb	-0.44412836
231	0xbe8ffefa	-0.2812422
232	0xbe5d74c9	-0.21626581
233	0xbee03079	-0.43786982
234	0xbebe8935	-0.37214056
235	0xbf2287a9	-0.6348825
236	0xbc28cc08	-0.010302551
237	0xbe3f7aee	-0.18699238
238	0xbd928395	-0.071540035
239	0xbe3cb204	-0.18427283
240	0xbe92b81f	-0.28656098
241	0xbe586231	-0.21131207
242	0xbecd0d77	-0.40049335
243	0xbedda691	-0.43291143
244	0xbe461f57	-0.19347893
245	0x3d6dc2c5	0.058047075
246	0xbe88ed2f	-0.26743457
247	0xbea7d905	-0.3278276
248	0xbed79e6d	-0.42113057
249	0xbdfd387a	-0.12364288
250	0xbecdf62c	-0.40226877
251	0xbe9df551	-0.30851224
252	0xbee5d3d2	-0.4488817
253	0xbde188e9	-0.11012442
254	0xbeb57c80	-0.35446548
255	0x3d07b181	0.033128265

linear_layer_stack.3.weight f4 [128, 256]
0	0x3ebc5b46	0.36788386
1	0x3e211a58	0.15732706
2	0x3e99ebec	0.30062807
3	0xbdeb3c4b	-0.11486109
4	0x3d2ee04e	0.042694382
5	0xbd7a72d4	-0.061144665
6	0xbcff7706	-0.031184684
7	0xbe803c6e	-0.25046104
8	0x3eabd5f3	0.33561668
9	0xbe9545dc	-0.2915486
10	0xbec2ddfd	-0.3805999
11	0x3e826b3e	0.25472444
12	0xbd938adc	-0.0720422
13	0xbe44ae0d	-0.1920702
14	0x3ed0d48e	0.40787166
15	0xbc2061f8	-0.009788983
16	0x3d80df22	0.06292559
17	0xbe3452cc	-0.1760971
18	0x3e3ee9a6	0.18643817
19	0x3c712d4c	0.014720272
20	0x3dc23a64	0.094837934
21	0x3de3171f	0.110883944
22	0x3cf9772d	0.030452335
23	0xbd97b768	-0.07408029
24	0x3e98f5c1	0.29874995
25	0x3db6054f	0.08887731
26	0xbce00b0f	-0.027349023
27	0xbd833198	-0.06405944
28	0x3be794a1	0.0070672785
29	0x3d77cdd2	0.06049902
30	0xbdd8a659	-0.10578603
31	0xbdc11fc6	-0.094298884
32	0x3e12e949	0.14346804
33	0xbe86f520	-0.2635889
34	0xbe635637	-0.22200857
35	0xbf02036a	-0.5078646
36	0x3e7e5b3b	0.24839489
37	0xbec51f49	-0.3850043
38	0xbddddba5	-0.108329095
39	0x3c1d4e04	0.00960112
40	0x3d895460	0.067055464
41	0xbddd3fe9	-0.108032055
42	0xbded5ae1	-0.115895994
43	0xbda3f7c3	-0.08006241
44	0xbd092b32	-0.03348846
45	0xbdc4034f	-0.095709436
46	0xbe8a8037	-0.27050945
47	0x3e138537	0.14406286
48	0xbe821a32	-0.2541061
49	0x3dd6f7a1	0.1049645
50	0xbe025042	-0.12725928
51	0x3e997cc6	0.29978007
52	0xbbe5cf4e	-0.007013238
53	0x3dc9cd21	0.09853578
54	0xbd419c7c	-0.047268376
55	0xbde9efca	-0.11422689
56	0xbc8d408e	-0.017242696
57	0x3e0e36e8	0.13888133
58	0x3c44510d	0.011982215
59	0x3bc3cdaf	0.005975447
60	0x3d9d2dbc	0.07674739
61	0xbc2336c3	-0.009961787
62	0xbd08c604	-0.033391967
63	0xbc8cfdcb	-0.017210862
64	0x3c960975	0.018315056
65	0xbbc5cd32	-0.006036424
66	0x3e5615dc	0.20906776
67	0x3c648224	0.013947044
68	0xbe64d85b	-0.22348158
69	0xbca97997	-0.020687861
70	0xbe367377	-0.17817484
71	0x3d080e94	0.033217028
72	0x3e481245	0.1953822
73	0xbd397253	-0.045275044
74	0x3dd2e189	0.10296924
75	0x3cb92600	0.022601128
76	0x3e03bc4f	0.12864803
77	0x3d4f67e1	0.050636176
78	0xbe8a2244	-0.26979268
79	0xbe0a0602	-0.13478854
80	0xbe7fb28c	-0.24970454
81	0xbe615e13	-0.22008543
82	0xbc77aac9	-0.015116402
83	0xbdcff6c6	-0.1015449
84	0x3d4e0fb5	0.05030795
85	0xbe53df31	-0.2069061
86	0x3e9c77b8	0.30560088
87	0x3eb2e579	0.349407
88	0x3df6e596	0.12055509
89	0x3df8dfdf	0.12152075
90	0x3e01b4aa	0.12666574
91	0x3e944234	0.2895676
92	0x3dfdc696	0.12391393
93	0xbe899e20	-0.26878452
94	0x3d80f8ce	0.06297456
95	0x3aafd55b	0.0013415025
96	0xbcc54434	-0.024080373
97	0x3d0b9c7a	0.034084775
98	0x3ebfbe39	0.37449816
99	0xbe33e7ea	-0.17568937
100	0x3eaffc48	0.34372163
101	0x3d78a75a	0.060706474
102	0x3e890120	0.2675867
103	0xbd4facac	-0.050701782
104	0xbd133c37	-0.035946097
105	0xbe3705f6	-0.17873368
106	0x3e8fc39b	0.28078923
107	0x3dd14373	0.10217943
108	0xbe3589de	-0.17728373
109	0xbc60d7ce	-0.013723327
110	0x3ea6a898	0.32550502
111	0xbdf70592	-0.12061609
112	0x3ce0207d	0.027359242
113	0x3e0c1555	0.13680013
114	0x3d91ddc6	0.07122378
115	0x3e88ea08	0.26741052
116	0x3e8c14a5	0.273595
117	0x3e3bb357	0.18330131
118	0xbe398fb1	-0.1812122
119	0x3e146a33	0.14493637
120	0xbdbdde6b	-0.092709385
121	0x3e243ad0	0.1603806
122	0x3debf988	0.11522204
123	0xbd893b4e	-0.067007646
124	0xbe5547c1	-0.20828153
125	0x3d2f79ca	0.042840756
126	0xbe3b30dd	-0.18280359
127	0xbec425fc	-0.3831023
128	0x3e592378	0.21204937
129	0xbe0a76e4	-0.13521916
130	0xbe39db44	-0.1815005
131	0x3e13eebf	0.14446543
132	0x3d9a7ce8	0.07543355
133	0x3ddf7620	0.109112024
134	0x3e44e306	0.19227228
135	0xbcceb669	-0.025233464
136	0x3d2d8447	0.042362478
137	0xbe139acc	-0.14414519
138	0x3d214743	0.0393746
139	0xbe9d2371	-0.30691102
140	0x3e8911bc	0.26771343
141	0x3dc4d57f	0.09611034
142	0xbe89de35	-0.26927343
143	0x3e60e0f2	0.2196081
144	0x3e0fc9d8	0.14041841
145	0x3e4c1477	0.19929682
146	0xbe02ac36	-0.12761006
147	0xbe5332fa	-0.20624915
148	0x3e2747b4	0.16335946
149	0xbd0538b8	-0.032524794
150	0xbe0635fe	-0.13106534
151	0xbe673ca0	-0.2258172
152	0xbe8d1b4d	-0.2755989
153	0xbcd35190	-0.025795728
154	0x3d9909c2	0.07472564
155	0x3dae4c45	0.08510641
156	0xbea0b067	-0.31384584
157	0xbd62579d	-0.055259336
158	0x3db8b488	0.090188086
159	0xbe518f7d	-0.20464893
160	0x3e585ab8	0.21128356
161	0xbe46b49e	-0.19404837
162	0x3c626829	0.013818779
163	0xbe013403	-0.12617497
164	0x3eb5f538	0.3553865
165	0x3eaff290	0.34364748
166	0xbeb20e71	-0.34776643
167	0xbbce94a1	-0.006304339
168	0xbd05f076	-0.032700025
169	0x3e66258a	0.22475258
170	0xbeabac36	-0.33529824
171	0xbdd8a3fb	-0.10578152
172	0xbd5ee244	-0.054415002
173	0x3d969693	0.073529385
174	0xbe001f05	-0.12511833
175	0xbd84aa3f	-0.06477784
176	0x3c6bb998	0.014387511
177	0x3e95c711	0.29253438
178	0xbe1a723d	-0.15082641
179	0x3e45c627	0.1931387
180	0xbd3b6421	-0.045749787
181	0xbdbd5ccf	-0.092462175
182	0x3e1da651	0.15395476
183	0xbe3f7d0f	-0.1870005
184	0xbe1e1ba5	-0.15440233
185	0xbcbe103d	-0.023201102
186	0xbdde152f	-0.10843884
187	0xbd7e67c7	-0.06211069
188	0x3daf51ac	0.085604995
189	0x3ed052ca	0.40688163
190	0xbe676220	-0.22596025
191	0xbd63e83c	-0.055641398
192	0xbdadab9d	-0.08479998
193	0x3e6dfa3f	0.23239993
194	0x3dc5fe13	0.096676014
195	0xbe18aba5	-0.14909227
196	0x3e0783e7	0.1323391
197	0x3d551d25	0.052029748
198	0xbe41aac8	-0.18912804
199	0x3e7c28a0	0.24624872
200	0xbe30a2ce	-0.17249605
201	0x3d77df9c	0.060515985
202	0xbe66f0bc	-0.2255277
203	0xbdef19a0	-0.116748095
204	0xbe82bcab	-0.25534567
205	0x3e08fd8c	0.1337797
206	0x3e04f772	0.12985018
207	0xbd291bac	-0.041286156
208	0xbe2c4088	-0.16821492
209	0x3e5abb90	0.21360612
210	0x3e1dc6a0	0.154078
211	0xbe25dee1	-0.16198303
212	0xbe193612	-0.14962032
213	0x3e0436ba	0.12911502
214	0xbdb520bf	-0.088441364
215	0x3e06be83	0.13158612
216	0x3d96bbd5	0.07360045
217	0xbea87889	-0.3290446
218	0xbd6f9418	-0.058490843
219	0x3cc3f075	0.02391837
220	0x3c4595e0	0.012059659
221	0xbd3cc75a	-0.046088554
222	0x3deac446	0.114632174
223	0x3e740468	0.23829806
224	0xbcf883a8	-0.030336216
225	0xbd33c771	-0.043891374
226	0xbe65ed87	-0.2245389
227	0x3e8af75e	0.2714185
228	0x3e846f75	0.25866285
229	0x3da7e1e8	0.08197385
230	0xbdaf46bc	-0.085584134
231	0xbd7bd6a3	-0.06148399
232	0xbe37c112	-0.17944744
233	0x3e582328	0.21107161
234	0x3d82ce97	0.0638706
235	0xbd8533a3	-0.065039895
236	0xbc331ed6	-0.010932645
237	0x3dff98a1	0.124802835
238	0x3e30076f	0.17190336
239	0xbe7f9756	-0.24960074
240	0x3d9e4298	0.077275455
241	0x3d632638	0.05545637
242	0xbe0fb91a	-0.14035454
243	0xbdb8c85a	-0.09022589
244	0x3e4df653	0.20113496
245	0x3da2b021	0.0794375
246	0xbed01113	-0.40638027
247	0xbdd36b6c	-0.103232235
248	0xbebfbbc9	-0.37447956
249	0xbe96bab3	-0.29439315
250	0x3c6c8523	0.014436039
251	0x3d761cfc	0.060086235
252	0xbe5fb599	-0.21846618
253	0xbdc023ce	-0.09381829
254	0xbe13cf06	-0.14434442
255	0xbd61a1a8	-0.055085808

linear_layer_stack.3.bias f4 [128]
0	0xbe4ac9c7	-0.19803534
1	0x3e63cf28	0.22246993
2	0x3c9a3b9f	0.018827258
3	0x3e5f43c1	0.2180319
4	0x3e0b20d7	0.13586746
5	0x3e445d54	0.19176227
6	0xbe7b0069	-0.24511875
7	0x3deb3771	0.11485184
8	0x3db7ee8b	0.08981045
9	0x3d1fd2d9	0.03901944
10	0xbe07b1b6	-0.13251385
11	0xbe37c4b6	-0.17946133
12	0xbe6fa180	-0.23401451
13	0x3e008112	0.12549236
14	0xb9d2b605	-0.00040189936
15	0xbe35f1a6	-0.17767963
16	0x3e93bb28	0.28853726
17	0xbdc841dc	-0.09778187
18	0x3d0715c8	0.032979757
19	0xbc02002e	-0.007934613
20	0xbea870d9	-0.32898596
21	0x3e0da128	0.13831007
22	0x3e78429a	0.24244156
23	0x3eb4ca8e	0.35310787
24	0x3e904bc5	0.28182808
25	0x3eabd0f2	0.3355785
26	0x3d75a06b	0.05996744
27	0x3d8370aa	0.06417973
28	0xbde1c53c	-0.110239476
29	0xbe4c12b7	-0.19929014
30	0xbd20961a	-0.039205648
31	0xbe560763	-0.20901255
32	0xbe9e49b8	-0.30915618
33	0xbda7c90a	-0.08192642
34	0xbd145237	-0.03621122
35	0x3dfe0fe8	0.124053776
36	0x3e4736e4	0.19454533
37	0xbd43f4af	-0.04784077
38	0x3dd79eee	0.1052836
39	0x3e4501d0	0.19238973
40	0xbdc02a3b	-0.09383055
41	0x3deb3b26	0.11485891
42	0x3d8f7e48	0.07006508
43	0x3e7e6582	0.2484341
44	0xbc80ff6c	-0.015746795
45	0xbe1b0e7f	-0.15142249
46	0xbe78f0f9	-0.24310674
47	0x3e2142b5	0.15748103
48	0xbc99c82b	-0.018772205
49	0x3e1e1e27	0.1544119
50	0x3da95b43	0.0826936
51	0x3e621f06	0.22082147
52	0x3e5e7911	0.2172587
53	0x3e990cb7	0.29892513
54	0xbdd3f2e0	-0.10349059
55	0x3ea700de	0.3261785
56	0x3dd894f8	0.105752885
57	0x3dd5190c	0.10405168
58	0x3dc8a13f	0.0979638
59	0x3e17f06b	0.14837806
60	0xbddc2375	-0.107489504
61	0x3e78b973	0.24289493
62	0x3e9fd25f	0.31215188
63	0x3dfcddfd	0.123470284
64	0x3da27d26	0.079340264
65	0x3d9690d6	0.07351844
66	0x3c216941	0.009851755
67	0xbd11a09d	-0.035553563
68	0xbd35717e	-0.044297688
69	0xbe5843e4	-0.21119648
70	0xbda601b3	-0.08105793
71	0x3dc73869	0.09727556
72	0x3cb67f38	0.02227746
73	0xbe650415	-0.22364838
74	0xbdc854a3	-0.09781768
75	0x3dc746c9	0.09730298
76	0xbea6409c	-0.32471168
77	0xbc8bed7f	-0.01708102
78	0x3ded8f85	0.1159964
79	0x3eabf6a9	0.33586624
80	0x3e546efb	0.2074546
81	0x3cdc4c34	0.026891805
82	0x3e67a3fa	0.22621146
83	0x3d5850e9	0.052811537
84	0x3bb5d5bb	0.0055491603
85	0x3e135e10	0.14391351
86	0x3e946ac1	0.28987697
87	0x3e16dc4c	0.14732474
88	0x3bf5e5cc	0.0075042006
89	0x3eb845e8	0.35990834
90	0x3e583c2d	0.21116705
91	0xbdbf0f45	-0.09329084
92	0xbe0d02a3	-0.13770537
93	0x3e3612b4	0.17780572
94	0x3d96cf92	0.0736381
95	0xbe81c211	-0.25343373
96	0xbe89f0fc	-0.2694167
97	0xbe8cadcf	-0.27476355
98	0x3e83e8d1	0.25763562
99	0xbe8ec00e	-0.278809
100	0x3ea4ee4a	0.3221305
101	0x3b93f9e8	0.004515875
102	0x3e1d3044	0.15350443
103	0x3ba64dce	0.005075193
104	0xbd0ecb91	-0.034862105
105	0xbd731a02	-0.059350975
106	0x3d5abb6a	0.05340139
107	0xbdb5896f	-0.08864104
108	0x3e986701	0.29766086
109	0x3e03c53d	0.12868209
110	0xbe933d57	-0.28757736
111	0xbd2987ef	-0.041389402
112	0x3e060b1b	0.13090174
113	0xbc43ff22	-0.011962684
114	0x3da968fc	0.08271977
115	0x3c3eab4c	0.01163752
116	0xbe877073	-0.2645298
117	0xbcd3d88d	-0.025860095
118	0xbe836673	-0.256641
119	0xbd2964e4	-0.041355982
120	0xbe47fafe	-0.1952934
121	0xbc028a6f	-0.007967575
122	0x3e1136e7	0.141811
123	0x3e405f5f	0.18786381
124	0x3d25178c	0.04030566
125	0x3dee2fe6	0.1163023
126	0xbe1a0cd0	-0.1504395
127	0xbe005c29	-0.12535156

linear_layer_stack.6.weight f4 [10, 128]
0	0x3e0b085d	0.13577409
1	0xbc50b191	-0.012737648
2	0xbd971efa	-0.07378955
3	0xbf0124aa	-0.5044657
4	0xbf088140	-0.5332222
5	0xbed1b0b1	-0.40955117
6	0xbc87cf6c	-0.016578399
7	0x3da030ad	0.07821784
8	0xbc2178a6	-0.009855425
9	0xbdff984b	-0.124802195
10	0xbadf8bfa	-0.0017055266
11	0x3c870b7e	0.016484972
12	0x3d981a73	0.0742692
13	0xbe47f09f	-0.19525383
14	0xbdafba0d	-0.08580408
15	0x3e330284	0.17481428
16	0xbe7c1ebc	-0.24621099
17	0x3dd6f576	0.10496037
18	0xbf079905	-0.52967864
19	0xbd2fb112	-0.042893477
20	0x3ea9da8c	0.3317455
21	0xbede4d80	-0.43418503
22	0xbebd7413	-0.3700262
23	0x3d15adcc	0.0365427
24	0xbf19e654	-0.6011708
25	0xbe646a78	-0.2230624
26	0x3e46725d	0.19379564
27	0xbe848265	-0.25880733
28	0xbf140ed8	-0.5783515
29	0x3d993caa	0.07482274
30	0x3d5611e2	0.052263148
31	0x3e1f936b	0.15583579
32	0xbf0a39d3	-0.5399448
33	0x3dced629	0.100994416
34	0x3dfb55d1	0.122722276
35	0x3db246ec	0.087049335
36	0x3dbb7f75	0.0915517
37	0xbdd3248b	-0.103097044
38	0x3ddea2c2	0.10870887
39	0xbebb754d	-0.3661293
40	0x3e42ccd1	0.19023444
41	0xbe196765	-0.14980848
42	0x3e1fa4bd	0.15590186
43	0xbd6de28d	-0.058077384
44	0xbeedb0b3	-0.46423873
45	0xbe9e0643	-0.30864152
46	0xbe54c650	-0.20778775
47	0xbebe9a94	-0.3722731
48	0xbd5fd539	-0.054646704
49	0xbe944450	-0.28958368
50	0x3e8e3be3	0.27780065
51	0x3cd361ad	0.025803411
52	0x3dfd05a6	0.12354593
53	0x3dc864bf	0.09784841
54	0x3e968703	0.2939988
55	0x3dc18daf	0.09450852
56	0xbe91bff3	-0.28466758
57	0x3c6a61ea	0.014305571
58	0xbdcf57b7	-0.10124152
59	0x3de944a0	0.11390042
60	0x3e457e88	0.19286549
61	0xbefad330	-0.48989248
62	0x3d93b95a	0.072130874
63	0xbd9f6271	-0.07782448
64	0xbd468882	-0.048470028
65	0xbe1721fb	-0.14759056
66	0xbecd2d81	-0.4007378
67	0xbe473bef	-0.19456457
68	0x3e2235d3	0.15840845
69	0xbe419c0b	-0.18907182
70	0x3da767ad	0.081740715
71	0xbeeaaa3c	-0.45833004
72	0x3dbe1f3b	0.092833005
73	0xbe48f6b2	-0.19625357
74	0x3e231605	0.15926369
75	0xbea0563e	-0.31315798
76	0x3e54ceb9	0.20781983
77	0xbc8e578e	-0.017375734
78	0xbdd6bc1d	-0.104850985
79	0x3e1439b4	0.14475137
80	0xbed15ccf	-0.4089112
81	0x3dd100c7	0.102052264
82	0x3d82efc6	0.063933894
83	0x3d9a5ce2	0.07537247
84	0x3eafb71e	0.34319395
85	0x3c659bf0	0.014014229
86	0xbeadf527	-0.339761
87	0x3de60b7a	0.11232658
88	0x3e01a014	0.12658721
89	0xbf00565e	-0.50131786
90	0x3d5892b5	0.052874286
91	0x3daef048	0.08541924
92	0x3e76eb06	0.24113092
93	0x3dd1695e	0.10225175
94	0x3e0057fb	0.12533562
95	0x3e73e6ad	0.23818465
96	0xbd3c092e	-0.045907192
97	0xbec11ef3	-0.37718925
98	0xbeb7e04f	-0.3591332
99	0x3dd6ab5a	0.104819015
100	0x3d33f9b4	0.043939307
101	0x3e0f93e9	0.14021267
102	0x3b404995	0.0029340733
103	0x3ddf3b2d	0.10899959
104	0x3dc98a0a	0.09840782
105	0xbf0ba608	-0.5455022
106	0xbe64e6df	-0.22353695
107	0x3ca97a07	0.02068807
108	0x3df156bb	0.11784121
109	0x3dd71ea6	0.105038926
110	0xbd576bc3	-0.052593004
111	0xbef65dbe	-0.48118395
112	0x3dea000e	0.11425792
113	0x3e15af90	0.14617753
114	0x3e5905f1	0.21193673
115	0x3dea1313	0.11429419
116	0x3ec72b86	0.38900393
117	0x3d23a6f1	0.03995413
118	0xbe87a792	-0.26495034
119	0xbd596123	-0.053071152
120	0xbe83cf81	-0.2574425
121	0x3e495b86	0.1966382
122	0xbec42abd	-0.38313857
123	0xbe08ecce	-0.13371584
124	0x3bf45450	0.00745634
125	0xbe9291ef	-0.28626963
126	0x3dec9320	0.11551499
127	0x3de62857	0.11238163
128	0xbe91ab07	-0.28450796
129	0x3e1f3dd3	0.15550928
130	0xbe416320	-0.1888547
131	0xbe45e121	-0.19324161
132	0xbe6ba3ac	-0.23011655
133	0xbe8c1be7	-0.27365038
134	0x3e118a31	0.14212872
135	0xbd930d75	-0.07180301
136	0xbe22e8dd	-0.15909143
137	0x3dc4b6d9	0.09605188
138	0xbde63835	-0.112411894
139	0x3e17c6a6	0.14821872
140	0x3e5fcc9b	0.21855395
141	0x3ce92d76	0.02846406
142	0x3e1bdca0	0.1522088
143	0xbd2c152d	-0.042012382
144	0x3e4927d1	0.19644095
145	0xbe237328	-0.15961897
146	0xbd87ac4f	-0.06624662
147	0x3e4cd32f	0.20002435
148	0xbb634323	-0.0034677468
149	0xbdf1ee2f	-0.11813008
150	0xbe96e234	-0.29469454
151	0xbe73050b	-0.23732392
152	0xbdce6b7d	-0.100790955
153	0xbec512dd	-0.38490954
154	0xbe26a228	-0.16272795
155	0xbe78661a	-0.24257699
156	0x3e110a36	0.14164051
157	0x3e5c0c23	0.21489005
158	0x3e34fa06	0.17673501
159	0x3e0feef8	0.14056003
160	0x3e28327d	0.1642551
161	0x3df72338	0.12067264
162	0x3e355122	0.17706731
163	0xbe9c86e3	-0.3057166
164	0xbe8665cb	-0.26249537
165	0x3c439d35	0.011939337
166	0xbd67b64e	-0.056570344
167	0x3d3539d4	0.044244602
168	0x3e539ce8	0.20665324
169	0xbd4d6ca8	-0.05015245
170	0xbeb96b1b	-0.36214527
171	0x3df40b2d	0.11916194
172	0x3e11d721	0.14242221
173	0x3d397163	0.04527415
174	0x3e02c1be	0.1276922
175	0xbe634c50	-0.2219708
176	0xbe126301	-0.1429558
177	0x3e567186	0.20941743
178	0x3e377df0	0.17919135
179	0x3dd0f8d7	0.102037124
180	0xbe28520f	-0.16437553
181	0xbefea2d8	-0.49733615
182	0xbde677a7	-0.112532906
183	0xbe75ead1	-0.24015357
184	0xbdebe666	-0.115185544
185	0xbe44de8c	-0.1922552
186	0x3e0449f5	0.12918837
187	0x3d797374	0.06090112
188	0x3dc4082b	0.095718704
189	0xbeeea031	-0.4660659
190	0xbc33e64b	-0.010980199
191	0x3e7d44bc	0.24733251
192	0xbeb3fe32	-0.35154873
193	0xbe14e4cf	-0.14540409
194	0x3e042b78	0.12907207
195	0x3e20334b	0.15644567
196	0x3dbfef1d	0.09371779
197	0x3dbd4cb9	0.09243149
198	0x3dc87ae7	0.09789067
199	0xbb910e73	-0.0044267713
200	0x3dd91a56	0.10600726
201	0xbcd48f12	-0.025947127
202	0xbdef17a8	-0.11674434
203	0xbe9d1c0e	-0.30685467
204	0x3d1ccc27	0.038280632
205	0x3822e860	3.8840226e-05
206	0x3ddedac6	0.108815715
207	0xbe3fe390	-0.18739152
208	0x3dcd1c87	0.10015207
209	0xbe61eca0	-0.22062922
210	0xbe55a935	-0.20865329
211	0xbdfecccf	-0.12441408
212	0x3dbd0593	0.09229579
213	0x3d1ccc69	0.03828088
214	0xbe92b656	-0.28654736
215	0xbeca06a8	-0.39458203
216	0xbc8d8e9d	-0.017279917
217	0x3dd482bf	0.103765
218	0xbec8a0df	-0.39185235
219	0x3d9db8ba	0.077012494
220	0x3e1c7404	0.15278631
221	0xbea24be8	-0.31698537
222	0x3de4b120	0.111665964
223	0xbdca66ac	-0.09882864
224	0x3d9ec7c7	0.07752948
225	0xbd3f9d05	-0.046780605
226	0x3e1652e6	0.1468006
227	0xbc934921	-0.017979207
228	0xbe1046de	-0.14089534
229	0x3d563d8a	0.052304782
230	0xbe0d8031	-0.13818432
231	0x3cb924b6	0.022600513
232	0xbe951e61	-0.2912474
233	0xbe2bd7c2	-0.16781524
234	0xbd05120f	-0.032487925
235	0x3e233479	0.15937985
236	0xbd771def	-0.06033128
237	0xbe3872cc	-0.18012542
238	0x3d5fe4bf	0.05466151
239	0x3e360c15	0.17778046
240	0xbd49bff7	-0.049255338
241	0xbef4b66d	-0.4779543
242	0x3cf6cbe9	0.030126529
243	0x3e37d4d2	0.17952278
244	0xbdeb1a30	-0.11479604
245	0xbd4adf14	-0.04952915
246	0xbe52911d	-0.20563169
247	0x3d54b221	0.05192769
248	0xbee07b70	-0.43844175
249	0xbe421f7a	-0.1895732
250	0xbea8485d	-0.3286771
251	0xbbca268c	-0.006169146
252	0x3d8cbaea	0.068715885
253	0xbe658b95	-0.22416528
254	0xbd8de84d	-0.069290735
255	0x3df3772d	0.11887965

linear_layer_stack.6.bias f4 [10]
0	0xbd7a77e3	-0.06114949
1	0xbe512974	-0.2042597
2	0x3e88f8e8	0.267524
3	0x3e9140d7	0.2836978
4	0xbd236807	-0.03989413
5	0xbc337417	-0.010952971
6	0xbe3fc38e	-0.18726942
7	0xbe164f23	-0.14678626
8	0x3dd0dbd1	0.10198177
9	0x3db31080	0.087433815
